results_differentiable_Bow_at_Banff_lumped_em_earth_20250909_0309/emulator_model.pt (torch, 198862 bytes, 20 tensors)

network.0.weight f4 [256, 17]
-0.08277455 0.11748808 -0.14996077 0.07258924 0.06624971 0.041768227 0.04682589 0.01218003
-0.0020927954 -0.0063405414 -0.020065723 -0.11475826 -0.12467412 0.054689497 0.04324106 -0.17068978
-0.15690784 0.03945729 -0.007749108 -0.09549971 0.022989346 -0.026940063 -0.08083245 0.06469223
-0.085093305 -0.10109913 -0.0021736934 -0.020629836 0.018494753 -0.15170708 -0.004842026 -0.03496955
0.01353141 -0.052729305 -0.025250845 0.112955935 -0.0057959394 -0.055440772 -0.18666404 -0.10376829
0.04226196 -0.002121079 -0.02270044 -0.0081326 0.063630566 0.006442399 -0.13230123 -0.019916104
-0.038449097 -0.11395984 -0.058644447 0.039583933 0.12776133 -0.012622642 -0.027672015 -0.10237594
-0.11254059 -0.09224648 0.048119217 0.1776448 0.14490648 -0.11405694 -0.028121276 0.013109236
-0.0007170337 -0.014353181 -0.040181644 -0.04721317 0.18523498 -0.13740262 -0.0015651997 -0.07094234
0.09030155 0.0056754816 -0.008480183 0.14661467 0.02456492 -0.002077709 0.037637386 -0.060446776
0.010797241 -0.121164374 -0.022513317 -0.0012777296 -0.008582201 0.025289062 0.03315499 0.039799344
-0.10626927 0.13624652 0.020899294 0.037592582 -0.13425241 -0.08342255 0.09734361 0.0856443
0.021773836 -0.13537963 0.06842776 0.097653456 0.010545995 -0.03311338 0.09113073 0.1619597
0.07944814 0.0062219203 0.04299522 0.012199018 -0.07143167 0.0846854 -0.09627505 -0.051792055
-0.102306224 0.115246646 -0.14635658 0.008013196 -0.042461682 0.04468358 -0.019548714 0.00044296382
-0.012193611 0.109861195 -0.06791729 0.06625141 0.08906648 0.031513233 0.03545748 0.06069048
0.023187712 -0.13788095 0.05582012 -0.10748657 -0.10864379 -0.12683992 0.116503716 -0.0131032495
0.068720885 -0.019636432 0.17460717 0.10241727 -0.03419029 -0.03405962 0.19836442 0.075815745
0.048908476 -0.098447464 -0.09950262 0.003744103 -0.048000768 -0.05853513 -0.08848964 -0.083982565
-0.10950955 -0.018903771 0.0762444 0.07714478 0.06858096 -0.1153811 -0.017704384 0.033554178
-0.03451615 0.04391647 0.00023333907 0.12044276 0.038476914 -0.12501323 -0.018833933 0.020313822
0.124314316 -0.08524604 0.037934687 -0.10082987 -0.041549526 0.0021982798 0.08553198 0.03557352
-0.08505094 0.03265167 -0.04456534 -0.045259472 -0.15321647 0.0039372155 0.028337078 0.21612789
0.18390477 0.12517774 -0.099132136 -0.04811346 0.15054053 0.012610007 0.06500292 0.06975677
-0.09115681 0.0758121 0.16073579 -0.0749895 -0.1864345 -0.07882985 0.13614546 0.107441835
0.07485462 -0.13480872 -0.20194457 -0.10806862 -0.035129335 -0.028278772 0.051509902 -0.16753906
-0.0141048785 -0.034608964 -0.06090967 -0.017922945 -0.05161237 -0.10997875 -0.005794884 -0.09322863
0.12817723 0.026811272 -0.14115745 0.16988684 -0.06978675 -0.16711864 0.0046516494 -0.095333256
-0.051670715 -0.10001792 -0.008625213 -0.040150307 -0.05618005 0.012684211 0.13589273 0.08490702
0.15749973 0.07413355 -0.004009813 -0.06693585 -0.19920823 -0.08361584 -0.036192186 -0.009725698
-0.006737566 -0.098068446 0.27672452 0.1164437 0.02496983 -0.010441994 -0.119885266 0.022590036
-0.045517433 -0.12347921 -0.06996312 -0.06864181 -0.1219225 0.0025889655 0.13908342 -0.066566445
00000000: b485 a9bd 979d f03d 518f 19be aba9 943d
00000010: eead 873d 2915 2b3d 81cc 3f3d c08e 473c
00000020: 4827 09bb 51c4 cfbb df60 a4bc 6106 ebbd
00000030: 2555 ffbd 1802 603d 8a1d 313d 4dc9 2ebe
00000040: 73ac 20be f89d 213d 3bec fdbb 5a95 c3bd
00000050: 2754 bc3c 68b1 dcbc 7c8b a5bd 5c7d 843d
00000060: 6645 aebd 100d cfbd 8674 0ebb e7ff a8bc
00000070: 4f82 973c 1a59 1bbe dca9 9ebb 3b3c 0fbd
00000080: d9b2 5d3c affa 57bd dcda cebc 7155 e73d
00000090: ddeb bdbb dd15 63bd dc24 3fbe 7884 d4bd
000000a0: e11a 2d3d cd01 0bbb 46f6 b9bc 993e 05bc
000000b0: be50 823d c31a d33b f979 07be 1927 a3bc
000000c0: cd7c 1dbd c763 e9bd 2935 70bd c322 223d
000000d0: ded3 023e 33cf 4ebc 6cb0 e2bc 7aaa d1bd
000000e0: ae7b e6bd b9eb bcbd a818 453d 85e8 353e
000000f0: 5d62 143e af96 e9bd 975e e6bc 1fc8 563c
00000100: 51f7 3bba 9b29 6bbc 8295 24bd 9962 41bd
00000110: 3dae 3d3e 46b3 0cbe 6327 cdba 384a 91bd
00000120: 05f0 b83d 64f9 b93b 77f0 0abc 2822 163e
00000130: 5f3c c93c 2c2a 08bb a929 1a3d 0a97 77bd
00000140: e9e6 303c 0725 f8bd d96d b8bc 7e79 a7ba
00000150: 5c9c 0cbc 022b cf3c 87cd 073d a304 233d
00000160: b4a3 d9bd 3584 0b3e ff34 ab3c aefa 193d
00000170: 7779 09be 71d9 aabd 165c c73d 4766 af3d
00000180: 0b5f b23c f5a0 0abe da23 8c3d 89fe c73d
00000190: 1cc9 2c3c e5a1 07bd c0a2 ba3d c3d8 253e
000001a0: b5b5 a23d 40e1 cb3b c11b 303d 64de 473c
000001b0: c44a 92bd 8a6f ad3d da2b c5bd e823 54bd
000001c0: ed85 d1bd 6f06 ec3d 80de 15be c849 033c
000001d0: 4dec 2dbd 2106 373d a024 a0bc 993d e839
000001e0: b6c7 47bc e8fe e03d 3818 8bbd d2ae 873d
000001f0: 7d68 b63d 0514 013d dd3b 113d 9596 783d
00000200: 28f4 bd3c aa30 0dbe a3a3 643d eb21 dcbd
00000210: a380 debd 53e2 01be 8099 ee3d 03af 56bc
00000220: 89bd 8c3d 95dc a0bc 39cc 323e 25c0 d13d
00000230: 1e0b 0cbd 1a82 0bbd 0b20 4b3e 4945 9b3d
00000240: 4154 483d d39e c9bd 08c8 cbbd a05f 753b
00000250: 749c 44bd 88c2 6fbd 0e3a b5bd 0dff abbd
00000260: 8b46 e0bd 15dc 9abc 0626 9c3d 15fe 9d3d
00000270: 2d74 8c3d ed4c ecbd c908 91bc 1b70 093d
00000280: ce60 0dbd c2e1 333d 7bac 7439 b2aa f63d
00000290: f899 1d3d 7803 00be 9f49 9abc 2c69 a63c
000002a0: 8198 fe3d 7a95 aebd 6761 1b3d e47f cebd
000002b0: d62f 2abd 0411 103b 642b af3d 8ab5 113d
000002c0: 302f aebd c2bd 053d 258a 36bd ff61 39bd
000002d0: c7e4 1cbe c203 813b 2923 e83c a150 5d3e
000002e0: 8851 3c3e 982e 003e ca05 cbbd 9f12 45bd
000002f0: 4c27 1a3e 349a 4e3c 4020 853d a3dc 8e3d
00000300: 6cb0 babd 6043 9b3d ec97 243e 1894 99bd
00000310: b0e8 3ebe 8b71 a1bd b769 0b3e 770a dc3d
00000320: 614d 993d 4c0b 0abe 8fca 4ebe 1553 ddbd
00000330: c7e3 0fbd e2a8 e7bc 0cfc 523d 5c8f 2bbe
00000340: 2618 67bc 21c2 0dbd 6b7c 79bd 24d3 92bc
00000350: 7e67 53bd 8a3c e1bd 03e3 bdbb a7ee bebd
00000360: e440 033e 50a3 db3c 948b 10be d1f6 2d3e
00000370: 5bec 8ebd 2621 2bbe dd6c 983b 153e c3bd
00000380: aca4 53bd 32d6 ccbd c450 0dbc a674 24bd
00000390: 0d1d 66bd 70d1 4f3c 7727 0b3e bbe3 ad3d
000003a0: 9c47 213e 55d3 973d c064 83bb aa15 89bd
000003b0: 3efd 4bbe c83e abbd 423e 14bd 8958 1fbc
000003c0: cdc6 dcbb 1cd8 c8bd d6ae 8d3e 097a ee3d
000003d0: 878d cc3c e614 2bbc 6886 f5bd bd0e b93c
000003e0: 7d70 3abd abe2 fcbd d348 8fbd 1494 8cbd
000003f0: 81b2 f9bd a2ab 293b e26b 0e3e fd53 88bd

network.0.bias f4 [256]
-0.0060142064 0.0 0.0 0.020778233 0.0055596624 0.026285285 0.038369104 -0.012416079
0.014617307 0.020888355 -0.06772065 0.039271936 -0.0578291 -0.032106005 0.023799106 0.029526915
-0.012777487 -0.023741346 0.0064465543 0.0019527737 -0.03242841 -0.046320576 -0.016478991 -0.024277752
0.0 -0.048538815 -0.021439262 -0.0075826584 -0.04236644 -0.0039850837 -0.021558043 -0.03707657
-0.022015862 -0.05930217 -0.030671623 0.031292487 -0.009663705 0.036383986 -0.009026693 -0.005731159
0.0 0.0036105881 -0.0031847013 -0.013649268 -0.013543364 -0.064898975 -0.0064884457 -0.023857942
-0.008157464 -0.001846319 -0.027910545 -0.011131019 0.026162684 -0.005772702 -0.014986154 0.0060281837
-0.036069993 0.0094233295 0.0033709572 0.0 -0.02115676 0.01802406 -0.0032826532 -0.009233259
-0.008279186 0.008803912 -0.02218465 -0.0058962335 -0.00086235884 -0.022826754 0.0 -0.017652504
0.0 0.0085864505 -0.03895328 -0.05580349 0.0019105144 -0.08810547 -0.0038428241 -0.020505035
-0.061612893 -0.01904921 -0.009173539 0.0015152125 0.0210326 -0.023784857 -0.030669386 -0.026190959
-0.0026067465 -0.021254646 -0.03152181 -0.006480485 -0.023875935 -0.044510968 0.0160116 -0.027966361
0.038935486 0.0045377896 -0.070881285 0.001862219 -0.0077424385 0.02059049 -0.056299593 -0.041293982
0.006122506 -0.0026520884 -0.0149540845 -0.03739654 -0.0045361067 -0.04376284 0.0005862904 0.0
0.023148088 -0.027926417 0.035084795 0.00062120863 0.019094752 -0.047723014 -0.06727105 -0.003464237
-0.070312954 0.01334723 0.0 -0.038099583 -0.008614575 -0.052513085 0.0023325114 0.0053095696
-0.024663102 -0.042974904 -0.050062917 -0.010730763 0.0 -0.001620515 -0.009217155 -0.05161023
-0.01879926 0.0 -0.014509636 0.0 -0.017001772 0.007646651 0.0033570847 -0.01523843
-0.013916127 -0.035704564 0.0 0.014407116 -0.015183473 -0.055198632 -0.023120854 -0.02008046
-0.077367336 -0.0005369348 -0.012037156 -0.00036513287 -0.016871313 -0.00978104 0.008042309 0.0043467544
-0.05195406 -0.050643165 0.0 -0.0017358451 -0.018579349 -0.018061485 -0.07385898 -0.011799986
0.021558454 -0.018139334 -0.005921097 -0.048568465 -0.010025214 -0.048266802 -0.020335423 -0.014390944
0.015456086 -0.015203605 0.0010782083 0.0 -0.017983506 -0.017089233 -0.013594816 0.036191545
-0.03971029 -0.053347882 -0.0043220664 -0.045339976 -0.044375133 0.040688332 -0.032560583 0.023839345
-0.0035011657 -0.11567285 0.0153883295 0.0046505365 -0.059253886 0.0059674974 -0.0059857904 -0.014227501
-0.028235337 -0.022747153 0.0 -0.07499318 0.012531031 0.004822689 -0.039534543 -0.053264428
0.0 0.010118788 -0.10827049 -0.028377574 -0.043762207 0.014397885 0.023777477 0.0453154
-0.0010237771 -0.0028612926 -0.030173535 -0.007121507 -0.0010152434 -0.012580238 0.0 -0.02155569
-0.0439112 -0.024901714 -0.010770108 0.0 -0.024841594 0.02735256 -0.08423479 -0.027565135
0.00045260566 -0.040601473 0.0013021987 0.0 -5.7846366e-05 0.0 -0.010365806 0.004335716
-0.067658566 0.010446891 0.006397053 -0.00023722075 -0.021801298 -0.027151624 -0.0065462417 -0.00963217
-0.0071992744 -0.057423275 -0.1420132 0.010891918 -0.008085528 -0.019257078 -0.027715676 -0.056106847
00000000: d212 c5bb 0000 0000 0000 0000 1d37 aa3c
00000010: d42d b63b 3d54 d73c ec28 1d3d cf6c 4bbc
00000020: 6e7d 6f3c 0e1e ab3c 20b1 8abd 9cdb 203d
00000030: 35de 6cbd 9681 03bd 58f6 c23c 6ee2 f13c
00000040: aa58 51bc 367d c2bc 9e3d d33b 36f4 ff3a
00000050: a7d3 04bd a5ba 3dbd f3fe 86bc 23e2 c6bc
00000060: 0000 0000 a3d0 46bd 64a1 afbc f377 f8bb
00000070: 6f88 2dbd 4e95 82bb 7e9a b0bc 9add 17bd
00000080: 9c5a b4bc d5e6 72bd 0e43 fbbc 8d2c 003d
00000090: 8454 1ebc 6007 153d b2e4 13bc 72cc bbbb
000000a0: 0000 0000 9e9f 6c3b 6cb6 50bb 2ea1 5fbc
000000b0: fce4 5dbc c1e9 84bd 079d d4bb bb71 c3bc
000000c0: e2a6 05bc 2f00 f2ba a8a4 e4bc e15e 36bc
000000d0: 2053 d63c ef28 bdbb 7c88 75bc 1288 c53b
000000e0: 21be 13bd 4f64 1a3c 47eb 5c3b 0000 0000
000000f0: f150 adbc 32a7 933c c821 57bb 1847 17bc
00000100: 6ca5 07bc 493e 103c 95bc b5bc 3135 c1bb
00000110: ec0f 62ba 2cff babc 0000 0000 fc9b 90bc
00000120: 0000 0000 2fae 0c3c 798d 1fbd 3392 64bd
00000130: 3a6a fa3a a470 b4bd e4d7 7bbb 2dfa a7bc
00000140: cd5d 7cbd 170d 9cbc 9c4c 16bc 189a c63a
00000150: 8f4c ac3c 76d8 c2bc 5d3e fbbc 6c8e d6bc
00000160: f3d5 2abb 391e aebc 031d 01bd 405a d4bb
00000170: 7797 c3bc 2251 36bd c22a 833c b619 e5bc
00000180: d17a 1f3d bdb1 943b 352a 91bd b315 f43a
00000190: 48b4 fdbb 63ad a83c 679a 66bd e123 29bd
000001a0: 4e9f c83b a9ce 2dbb fa01 75bc 1d2d 19bd
000001b0: 9fa3 94bb aa40 33bd 48b1 193a 0000 0000
000001c0: 0fa1 bd3c f1c5 e4bc 13b5 0f3d 9bd8 223a
000001d0: 996c 9c3c 3579 43bd 67c5 89bd 4108 63bb
000001e0: 3d00 90bd 57ae 5a3c 0000 0000 4f0e 1cbd
000001f0: 2524 0dbc f617 57bd 0cdd 183b e6fb ad3b
00000200: 460a cabc 7406 30bd c60e 4dbd 15d0 2fbc
00000210: 0000 0000 7667 d4ba 8d03 17bc 4065 53bd
00000220: e800 9abc 0000 0000 d3b9 6dbc 0000 0000
00000230: 4d47 8bbc c290 fa3b 8902 5c3b 9caa 79bc
00000240: 7800 64bc f33e 12bd 0000 0000 d30b 6c3c
00000250: 1ac4 78bc f617 62bd f267 bdbc c77f a4bc
00000260: c472 9ebd 16c1 0cba 7e37 45bc 4e6f bfb9
00000270: b535 8abc a840 20bc e4c3 033c 386f 8e3b
00000280: c8cd 54bd 356f 4fbd 0000 0000 4c85 e3ba
00000290: b833 98bc aef5 93bc 6043 97bd ba54 41bc
000002a0: 5b9b b03c f198 94bc c305 c2bb baef 46bd
000002b0: cc40 24bc 69b3 45bd 7996 a6bc fec7 6bbc
000002c0: 863b 7d3c 8b18 79bc ab52 8d3a 0000 0000
000002d0: 2552 93bc b8fe 8bbc cbbc 5ebc 963d 143d
000002e0: 42a7 22bd 4f83 5abd 1fa0 8dbb 69b6 39bd
000002f0: b3c2 35bd cfa8 263d 3f5e 05bd bb4a c33c
00000300: d073 65bb e3e5 ecbd 551f 7c3c 8763 983b
00000310: 34b4 72bd ff8a c33b 7324 c4bb 771a 69bc
00000320: cb4d e7bc 3d58 babc 0000 0000 0696 99bd
00000330: f44e 4d3c a607 9e3b f9ee 21bd cd2b 5abd
00000340: 0000 0000 46c9 253c ebbc ddbd 1678 e8bc
00000350: 0040 33bd 1be5 6b3c fcc8 c23c a49c 393d
00000360: 4230 86ba 8684 3bbb 7d2e f7bc 885b e9bb
00000370: ea11 85ba 581d 4ebc 0000 0000 8f95 b0bc
00000380: 3bdc 33bd aefe cbbc 1b75 30bc 0000 0000
00000390: 9980 cbbc 7a12 e03c 4a83 acbd 47d0 e1bc
000003a0: b44b ed39 bb4d 26bd 8aae aa3a 0000 0000
000003b0: 10a0 72b8 0000 0000 57d5 29bc 9f12 8e3b
000003c0: 9390 8abd 7029 2b3c 5f9e d13b 76be 78b9
000003d0: a398 b2bc 156d debc db81 d6bb 40d0 1dbc
000003e0: e4e7 ebbb ab34 6bbd e96b 11be 0474 323c
000003f0: 2a79 04bc 05c1 9dbc fc0b e3bc 4bd0 65bd

network.3.weight f4 [256]
0.9940728 1.0 1.0 1.0055385 0.9863413 0.9818749 1.059877 1.0020852
1.0123166 0.99019235 0.9796372 0.9939357 0.99401337 1.0035838 1.0795039 1.0037632
0.9511603 1.0079414 0.9567179 1.0772175 0.9892134 0.9934541 0.9688089 0.99891496
1.0 1.0824839 1.0052828 0.95761144 0.9865195 1.0247645 1.0254372 1.0037543
0.9649927 0.9773601 0.96012217 0.971192 1.0028784 1.0141135 1.1255759 0.9725844
1.0 1.0357608 0.98530966 1.0434151 1.0641152 0.99242455 1.0068293 1.0349962
1.0293987 1.0548265 1.0016735 1.089572 1.080383 0.9858707 1.0231754 1.0559556
1.0026469 1.0467103 1.0303124 1.0 1.0312402 0.93769634 1.0186104 0.9430753
1.092769 1.0139053 1.0464214 1.0030278 1.0626193 0.9921666 1.0 1.0681744
1.0 1.0114248 1.0014733 0.97935593 0.9695155 0.93909293 1.0245022 0.93234676
1.0452893 0.9771983 0.9855931 0.91115487 1.073717 0.97574955 0.97166044 1.1027564
1.0337325 0.99750876 0.96106225 1.0661873 1.0574849 0.99422115 0.95796776 1.0094097
1.0185281 1.0073212 0.9955479 0.9686558 1.1038363 0.9720804 0.9190003 0.893514
0.99633646 1.0937929 1.0181719 0.9975997 0.9601435 0.94146115 1.0027629 1.0
1.0043465 0.96932375 1.0256071 1.0475812 0.9628576 0.87943983 0.9737044 0.94799703
0.97912 0.9829963 1.0 0.96569574 0.95676214 0.9415585 0.9788571 1.0583895
1.0642502 1.0045784 0.90802413 0.99302095 1.0 1.0133598 0.98124975 0.99010324
0.9190269 1.0 0.9722143 1.0 0.9892292 0.9220746 1.0037218 1.1454418
1.0188432 1.0158825 1.0 1.0381665 0.8987542 0.9680732 0.9729177 1.0469476
0.9737881 1.0228158 1.011777 1.0504001 1.0445641 0.9994638 1.0149938 0.98043823
0.935982 0.92667204 1.0 1.0615216 0.978337 1.031525 0.9280782 0.98959327
0.9892124 0.9842237 1.0325012 0.9840434 1.006555 1.0028464 1.0214286 0.93849033
0.9993474 0.9349579 1.1401484 1.0 0.97352195 0.9870172 1.0147197 0.9455303
0.9521166 1.0202173 0.96364796 0.9290004 1.0097996 0.9812611 1.0998138 1.0353742
0.950186 0.846359 1.021073 1.0004909 0.99796826 1.0503734 1.022157 0.99204594
1.0317167 0.943065 1.0 0.91737455 0.9854746 0.96249515 0.9896718 0.9839899
1.0 1.018788 0.9867468 0.9968887 1.0052868 0.9846552 0.96008426 0.9633954
1.0026091 1.016174 0.99594617 0.9854074 0.98988616 0.99363256 1.0 1.0263233
0.9786417 0.98468786 1.0136915 1.0 1.0073141 1.017093 1.029248 1.0406908
1.0961928 0.9982195 1.0640527 1.0 0.93175966 1.0 1.0484899 0.998693
1.0030738 1.0639813 0.99760145 1.0042673 0.99521947 1.0352566 0.99593437 0.9217718
0.9119622 1.0261904 0.96200454 0.99251914 1.084597 0.998474 1.0107403 0.96807957
00000000: 8e7b 7e3f 0000 803f 0000 803f 7cb5 803f
00000010: dd80 7c3f 275c 7b3f 0daa 873f 5444 803f
00000020: 9793 813f 3f7d 7d3f 81c9 7a3f 9272 7e3f
00000030: a977 7e3f 6f75 803f 2f2d 8a3f 507b 803f
00000040: 3e7f 733f 3904 813f 77eb 743f 43e2 893f
00000050: 173d 7d3f 0253 7e3f dc03 783f e4b8 7f3f
00000060: 0000 803f d58e 8a3f 1bad 803f 0626 753f
00000070: 8b8c 7c3f 7c2b 833f 8741 833f 057b 803f
00000080: c309 773f 4634 7a3f 91ca 753f 0aa0 783f
00000090: 525e 803f 79ce 813f df12 903f 4bfb 783f
000000a0: 0000 803f cf93 843f 413d 7c3f a08e 853f
000000b0: ed34 883f 890f 7e3f c8df 803f c17a 843f
000000c0: 56c3 833f 8e04 873f d636 803f 1877 8b3f
000000d0: fd49 8a3f 0662 7c3f 69f7 823f 8e29 873f
000000e0: bc56 803f 9afa 853f 47e1 833f 0000 803f
000000f0: aeff 833f de0c 703f d361 823f 626d 713f
00000100: dbdf 8b3f a6c7 813f 23f1 853f 3763 803f
00000110: e903 883f a1fe 7d3f 0000 803f f0b9 883f
00000120: 0000 803f 5e76 813f 4730 803f 12b7 7a3f
00000130: 2b32 783f 6568 703f e322 833f 47ae 6e3f
00000140: 0acc 853f ab29 7a3f d44f 7c3f 7241 693f
00000150: 8f6f 893f b9ca 793f bdbe 783f 1f27 8d3f
00000160: 5951 843f bc5c 7f3f 2d08 763f d378 883f
00000170: aa5b 873f 4785 7e3f 603d 753f 5634 813f
00000180: 215f 823f e7ef 803f 3adc 7e3f d4f9 773f
00000190: 824a 8d3f 43da 783f 9b43 6b3f 55bd 643f
000001a0: e80f 7f3f 6801 8c3f 7553 823f b262 7f3f
000001b0: f7cb 753f 9903 713f 895a 803f 0000 803f
000001c0: 6d8e 803f 9a25 783f 1847 833f 2417 863f
000001d0: d67d 763f f822 613f b144 793f efaf 723f
000001e0: 9ca7 7a3f a5a5 7b3f 0000 803f d637 773f
000001f0: 5dee 743f fa09 713f 6196 7a3f 4f79 873f
00000200: 5a39 883f 0696 803f 4574 683f 9f36 7e3f
00000210: 0000 803f c6b5 813f 2f33 7b3f 6877 7d3f
00000220: 5945 6b3f 0000 803f 09e3 783f 0000 803f
00000230: 203e 7d3f 150d 6c3f f579 803f d69d 923f
00000240: 7469 823f 7008 823f 0000 803f a4e2 843f
00000250: c114 663f a5d3 773f 2211 793f 6102 863f
00000260: 2d4a 793f a1eb 823f e981 813f 8373 863f
00000270: 47b4 853f dcdc 7f3f 51eb 813f 00fe 7a3f
00000280: 849c 6f3f 613a 6d3f 0000 803f f1df 873f
00000290: 4b74 7a3f 0309 843f 8896 6d3f fc55 7d3f
000002a0: 063d 7d3f 16f6 7b3f 0029 843f 45ea 7b3f
000002b0: cbd6 803f 455d 803f 2cbe 823f e740 703f
000002c0: 3bd5 7f3f 6759 6f3f 62f0 913f 0000 803f
000002d0: bc38 793f 29ad 7c3f 56e2 813f 460e 723f
000002e0: eabd 733f 7b96 823f a2b1 763f f8d2 6d3f
000002f0: 1d41 813f ed33 7b3f b3c6 8c3f 2487 843f
00000300: 643f 733f fcaa 583f 85b2 823f 1610 803f
00000310: d97a 7f3f a372 863f 0ad6 823f b9f6 7d3f
00000320: 4b0f 843f b56c 713f 0000 803f 0fd9 6a3f
00000330: 1048 7c3f 1566 763f 225b 7d3f c3e6 7b3f
00000340: 0000 803f a567 823f 709b 7c3f 1934 7f3f
00000350: 3dad 803f 5d12 7c3f 15c8 753f 15a1 763f
00000360: 7f55 803f fd11 823f 54f6 7e3f a943 7c3f
00000370: 2e69 7d3f b45e 7e3f 0000 803f 905e 833f
00000380: 4388 7a3f 8114 7c3f a5c0 813f 0000 803f
00000390: abef 803f 1a30 823f 66be 833f 5b35 853f
000003a0: 0c50 8c3f 508b 7f3f e132 883f 0000 803f
000003b0: cd87 6e3f 0000 803f eb34 863f 58aa 7f3f
000003c0: b964 803f 8a30 883f cf62 7f3f d58b 803f
000003d0: b4c6 7e3f 4a83 843f 8ef5 7e3f 3df9 6b3f
000003e0: 5b76 693f 355a 833f ee45 763f bc15 7e3f
000003f0: 13d4 8a3f fe9b 7f3f f05f 813f 10d4 773f

network.3.bias f4 [256]
0.012140498 -0.08645673 -0.07389452 -0.0012597132 0.08291923 0.026157228 -0.07300929 0.03221971
-0.015479345 0.0048050033 -0.056933817 -0.05373425 0.07385076 -0.016081143 -0.07603414 -0.07699874
0.024170287 0.01249908 0.0013008023 -0.031076062 0.017164348 0.051118527 0.05615712 -0.04061452
-0.096083485 -0.016076498 0.019249422 0.09147416 0.01510471 0.017257234 0.05708898 0.0030093617
0.047366224 0.01159301 -0.07464959 -0.015694171 -0.025758492 -0.078342274 -0.037636813 -0.078496695
-0.09874678 -0.023936616 0.018557165 -0.038735274 -0.0909555 0.04236306 -0.002258201 -0.00460984
0.03425631 0.04770386 -0.03081329 -0.07730262 -0.08038493 -0.028942352 -0.027185483 0.05083138
0.09633376 0.07846136 0.017755598 -0.059050795 0.007030028 -0.036202013 -0.0044474695 -0.04672551
0.0333679 -0.007705337 0.047196265 0.097794026 0.037714396 0.038394652 0.011769341 0.027125048
-0.060191225 0.016871048 0.0029865413 0.123949364 -0.10459922 0.016503446 0.06531556 0.011657265
0.06332422 0.02835237 -0.07841319 -0.0047717453 0.068628855 0.04545061 0.07023312 0.03464199
0.054650895 -0.016680835 -0.04851816 0.04655872 0.049501106 -0.04245555 0.014456346 -0.008080175
-0.02075481 -0.034199797 0.024782794 -0.041513108 0.074034564 -0.055485554 0.066227496 0.06183286
-0.005285743 0.032508757 0.015056592 0.009767071 -0.016155675 0.033996105 -0.011131956 -0.047443207
0.04074684 0.09302916 0.014576104 0.06640551 -0.011243221 0.0063261455 0.09137112 -0.042523548
0.014353611 -0.01958051 0.09330394 -0.067041546 -0.049498707 0.060868952 0.049445875 0.024652882
0.06542745 0.079332985 -0.003383675 -0.035185594 0.034396674 0.03338954 0.034742415 0.0843599
0.060187865 0.076856166 -0.00013826767 0.04160565 0.041225 0.022689866 0.08380569 -0.083506264
-0.029763956 0.073609725 0.1165714 0.0148193855 0.038856924 0.044035036 0.020171523 0.06764651
0.018158622 -0.0701552 -0.008905078 -0.0752719 -0.03356935 -0.029577266 0.01653965 0.02093228
0.0031665235 0.030362986 0.10263015 0.0140422005 -0.027182644 0.11733621 0.018937467 0.079381675
-0.008340747 -0.032020085 0.01849334 -0.0031404544 0.007968609 -0.040607587 0.057026513 0.04605599
0.07101652 -0.010158139 -0.07205085 0.07530356 0.020059898 -0.004633608 -0.05986015 0.015976284
-0.037221782 0.060289748 0.05573499 0.027461588 0.11047192 -0.11316702 -0.023435256 -0.095302165
0.053768236 0.005994058 0.0031454142 0.0562272 0.08956281 -0.005618156 0.06824496 -0.002043639
-0.099685006 0.042191405 0.026362194 0.047120273 -0.002106095 -0.07499034 0.15286578 -0.03675622
0.10295701 0.016315775 -0.0008858325 -0.06652901 0.0006916193 0.06686082 0.0012011166 -0.10054115
0.05418972 0.015811143 0.040636413 0.006470979 0.019724542 0.051248074 0.0558818 0.001288001
0.022470081 0.08481651 0.036529202 0.0799963 -0.03794433 0.042913467 0.06137682 0.03721873
-0.05335734 -0.04193669 -0.10409948 0.11801297 -0.0123362085 0.1290954 0.0066965986 -0.060169764
-0.049245134 -0.022675477 -0.048821017 -0.050381407 0.06028295 -0.09283808 -0.019847127 -0.007861605
0.02287885 0.014967726 0.03788958 -0.042263452 0.055877477 -0.02284279 -0.011703 -0.027317636
00000000: f0e8 463c 3a10 b1bd 0356 97bd f61c a5ba
00000010: 8fd1 a93d af47 d63c e585 95bd d1f8 033d
00000020: 149d 7dbc 4a73 9d3b 6f33 69bd 7218 5cbd
00000030: 113f 973d 9abc 83bc cab7 9bbd 84b1 9dbd
00000040: c400 c63c f1c8 4c3c af7f aa3a 3a93 febc
00000050: 3f9c 8c3c a961 513d 0205 663d 695b 26bd
00000060: 6bc7 c4bd dcb2 83bc f7b0 9d3c ce56 bb3d
00000070: bf79 773c 0b5f 8d3c 22d6 693d b638 453b
00000080: 1603 423d 9cf0 3d3c e2e1 98bd 1091 80bc
00000090: 7903 d3bc ea71 a0bd 0f29 1abd e0c2 a0bd
000000a0: c03b cabd b916 c4bc 3205 983c e1a8 1ebd
000000b0: e146 babd e384 2d3d 53fe 13bb 240e 97bb
000000c0: 5850 0c3d 1f65 433d 276c fcbc d650 9ebd
000000d0: dba0 a4bd 8318 edbc 17b4 debc 9134 503d
000000e0: a24a c53d 59b0 a03d 3074 913c 3fdf 71bd
000000f0: 265c e63b 9048 14bd 14bc 91bb 4063 3fbd
00000100: c7ac 083d 0d7d fcbb df50 413d 3c48 c83d
00000110: 697a 1a3d b643 1d3d 32d4 403c 5935 de3c
00000120: 138b 76bd 2735 8a3c d9b9 433b 2ad9 fd3d
00000130: 1e38 d6bd 3c32 873c 2ac4 853d 1dfe 3e3c
00000140: 21b0 813d 3b43 e83c 1897 a0bd 4d5c 9cbb
00000150: 498d 8c3d 6b2a 3a3d 62d6 8f3d c2e4 0d3d
00000160: 9ed9 5f3d 3fa6 88bc faba 46bd 5bb4 3e3d
00000170: acc1 4a3d dfe5 2dbd 4fda 6c3c b662 04bc
00000180: fe05 aabc 1615 0cbd 4905 cb3c a609 2abd
00000190: 6f9f 973d d244 63bd 48a2 873d 7444 7d3d
000001a0: 0734 adbb e727 053d edaf 763c 1106 203c
000001b0: e858 84bc 803f 0b3d cf62 36bc cf53 42bd
000001c0: 29e6 263d 1286 be3d 9cd0 6e3c 9dff 873d
000001d0: 7d35 38bc 8e4b cf3b c820 bb3d 2c2d 2ebd
000001e0: 682b 6b3c 4e67 a0bc 2316 bf3d 144d 89bd
000001f0: 28bf 4abd b951 793d c287 4a3d d7f4 c93c
00000200: d4fe 853d 5579 a23d a5c0 5dbb c51e 10bd
00000210: 87e3 0c3d 78c3 083d 104e 0e3d e2c4 ac3d
00000220: 8d87 763d c466 9d3d f2fb 10b9 b06a 2a3d
00000230: 8cdb 283d 19e0 b93c 51a2 ab3d 5505 abbd
00000240: 8ad3 f3bc b2c0 963d fcbc ee3d 02cd 723c
00000250: 7028 1f3d 155e 343d c03e a53c 418a 8a3d
00000260: 64c1 943c 88ad 8fbd 9be6 11bc 2728 9abd
00000270: 0480 09bd 064c f2bc 297e 873c 2c7a ab3c
00000280: 7385 4f3b ccbb f83c c22f d23d 4211 663c
00000290: 23ae debc f84d f03d bf22 9b3c dc92 a23d
000002a0: a1a7 08bc 7e27 03bd 587f 973c 15d0 4dbb
000002b0: c58e 023c 2454 26bd a294 693d 35a5 3c3d
000002c0: 1c71 913d 536e 26bc 658f 93bd c138 9a3d
000002d0: a854 a43c 85d5 97bb eb2f 75bd b2e0 823c
000002e0: de75 18bd 62f2 763d 5f4a 643d 20f7 e03c
000002f0: 1a3f e23d 1cc4 e7bd 4bfb bfbc c82d c3bd
00000300: 153c 5c3d ce69 c43b 4b23 4e3b 7e4e 663d
00000310: b56c b73d 8218 b8bb 03c4 8b3d 93ee 05bb
00000320: a727 ccbd e5d0 2c3d 87f5 d73c 3001 413d
00000330: 6906 0abb 8994 99bd d988 1c3e b18d 16bd
00000340: 20db d23d a9a8 853c 3637 68ba 5d40 88bd
00000350: c94d 353a 53ee 883d c96e 9d3a 85e8 cdbd
00000360: 0af6 5d3d 5f86 813c 5e72 263d 820a d43b
00000370: 5d95 a13c 80e9 513d 50e4 643d 24d2 a83a
00000380: 2d13 b83c 47b4 ad3d a59f 153d 1ad5 a33d
00000390: 846b 1bbd 08c6 2f3d 4366 7b3d ab72 183d
000003a0: 3a8d 5abd cfc5 2bbd 1c32 d5bd c9b0 f13d
000003b0: cf1d 4abc 9631 043e 246f db3b 9274 76bd
000003c0: 44b5 49bd ecc1 b9bc 8cf8 47bd bc5c 4ebd
000003d0: 41eb 763d e421 bebd 7196 a2bc f6cd 00bc
000003e0: 6d6c bb3c 313b 753c 1b32 1b3d 711c 2dbd
000003f0: c8df 643d cd20 bbbc f1bd 3fbc 3cc9 dfbc

network.3.running_mean f4 [256]
0.0007240618 0.0 0.0 0.04080269 0.066433154 0.11759531 0.10511794 0.039162852
0.054162793 0.12225118 0.062645786 0.066407114 0.00022995529 0.0011674952 0.03373469 0.08931581
0.059236646 0.0002938764 0.17077054 0.004903397 1.1378688e-21 0.26151523 0.19153388 0.022790939
0.0 0.011919961 2.3171092e-34 3.2157302e-27 0.0769679 0.00036893904 0.008969108 3.3025988e-33
5.0515484e-23 0.14834963 1.99602e-30 0.11000089 6e-45 0.09994584 2.5756989e-23 0.013920417
0.0 0.02171279 0.13790712 5.393688e-29 0.001742976 2.2299875e-31 0.10536569 2.5295034e-26
0.0010360818 0.0045202123 0.03458524 0.005746594 0.033670828 0.0019874729 0.00048741285 0.028963024
0.2445204 0.04384723 0.16080579 0.0 0.05399086 0.107724 0.0044522504 0.12876882
0.00016669155 0.04105493 0.00012453564 7.825e-42 0.014601962 4.1047e-41 0.0 0.014867495
0.0 0.16392222 0.12145887 0.00016699913 0.20685971 0.18552195 0.02919188 0.1342363
0.15415849 0.07434207 2.1708875e-36 0.13133244 0.07402265 0.0035005785 0.13107125 0.0021312784
0.03313702 0.0006792575 0.00020799456 0.012120452 0.102592245 1.1077057e-26 0.053228334 6.810168e-07
0.07190671 0.19309585 0.26205528 0.14494741 0.000710479 0.05586929 0.4651786 0.10281658
0.010919497 0.012889446 0.033996854 0.00016698135 0.011324133 9.394075e-22 0.07378019 0.0
0.10832953 0.24801303 0.22588937 0.0011937241 0.092539325 0.16668838 0.10358298 0.12733795
5.775194e-34 0.17274758 0.0 0.018688926 0.0005452707 0.002387977 0.24752048 0.12741241
9.785681e-05 0.092230774 0.33500257 6e-45 0.0 0.00031163843 0.009374364 0.098314255
0.2636471 0.0 0.052694116 0.0 6e-45 0.12683332 0.054872148 0.002891885
0.0003879267 0.10841409 0.0 0.024627462 0.25015998 0.008854982 0.13427024 0.0395686
0.0011374416 0.00018337647 0.01362512 0.00042417357 0.0008435145 8.2091094e-05 0.012185195 0.2033942
0.16270922 0.014356585 0.0 0.0017806911 0.07129032 0.013516994 0.19198705 6e-45
0.06771584 1.1133803e-24 0.00086869317 0.0002407924 0.038297683 4.6303093e-35 0.01741104 0.14223608
0.07078777 0.19857818 0.0005861807 0.0 4.7703547e-14 0.20631467 1.98186e-40 0.094076134
0.1555497 0.064626776 0.12883718 0.03729716 0.13062263 0.079955325 0.003923594 0.01112316
0.08018677 0.1410023 0.11979426 0.05962901 1.03090535e-17 0.01815918 0.0012983769 0.09819512
0.051842313 0.22989942 0.0 0.2914754 0.09466401 0.05886912 0.08150876 4.0620875e-17
0.0 0.0009104578 0.0058046333 0.00023631605 0.2148901 0.1311178 0.14024381 0.18044409
0.0006716163 0.08699237 0.11955189 0.113917686 0.0070317546 2.606239e-38 0.0 0.00016576915
0.18860066 0.03775127 0.00045941107 0.0 1.9998656e-10 0.15026082 0.06138224 2.8601211e-05
0.0223678 0.112524085 0.01941716 0.0 0.21841566 0.0 2.275171e-33 0.11224314
7.5277715e-24 0.023201155 0.06514901 0.011116394 1.501e-42 0.0009963204 0.022107637 0.21513249
0.14224178 1.6025878e-31 0.3531605 0.064527735 0.00027665703 0.00011696724 0.0014969584 0.14311191
00000000: f7ce 3d3a 0000 0000 0000 0000 b920 273d
00000010: 1b0e 883d cfd5 f03d 1348 d73d 3a69 203d
00000020: ced9 5d3d d45e fa3d 6f4c 803d 7400 883d
00000030: 2720 7139 a306 993a 632d 0a3d 35eb b63d
00000040: 20a2 723d 6c13 9a39 79de 2e3e adac a03b
00000050: 2bf3 ab1c 53e5 853e 7521 443e 10b4 ba3c
00000060: 0000 0000 f14b 433c 92ff 9907 c2c6 7e13
00000070: 59a1 9d3d 296e c139 2af3 123c 412f 8909
00000080: 2447 741a f7e8 173e b7ef 210e 2648 e13d
00000090: 0400 0000 68b0 cc3d 371b f919 7612 643c
000000a0: 0000 0000 05df b13c 8637 0d3e 09bf 8810
000000b0: 9274 e43a 06bc 900c f8c9 d73d 8882 fa14
000000c0: 23cd 873a 4a1e 943b 41a9 0d3d ed4d bc3b
000000d0: 6cea 093d 4340 023b 728b ff39 dd43 ed3c
000000e0: 8e63 7a3e 2799 333d 46aa 243e 0000 0000
000000f0: 8525 5d3d 679e dc3d 2fe4 913b f9db 033e
00000100: ecc9 2e39 3729 283d c895 0239 d015 0000
00000110: 113d 6f3c 6c72 0000 0000 0000 cb96 733c
00000120: 0000 0000 3adb 273e 6ebf f83d 7d1c 2f39
00000130: 08d3 533e 77f9 3d3e cf23 ef3c 3e75 093e
00000140: b9db 1d3e a840 983d bead 3804 037c 063e
00000150: 3099 973d f669 653b 8b37 063e ebac 0b3b
00000160: afba 073d 3310 323a 1d19 5a39 dc94 463c
00000170: e21b d23d 5a67 5b14 f405 5a3d 1ecf 3635
00000180: d343 933d ebba 453e 1c2c 863e 186d 143e
00000190: 703f 3a3a 32d7 643d e42b ee3e 8091 d23d
000001a0: b1e7 323c 412e 533c 4940 0b3d b717 2f39
000001b0: db88 393c 91f5 8d1c 111a 973d 0000 0000
000001c0: dfdb dd3d 21f7 7d3e 8b4f 673e bc76 9c3a
000001d0: 4285 bd3d 5cb0 2a3e 5023 d43d e164 023e
000001e0: ebe9 3f08 bee4 303e 0000 0000 8519 993c
000001f0: 7ff0 0e3a 9b7f 1c3b 0276 7d3e 6678 023e
00000200: 7a38 cd38 7de3 bc3d 7585 ab3e 0400 0000
00000210: 0000 0000 6763 a339 ef96 193c fc58 c93d
00000220: c1fc 863e 0000 0000 c9d5 573d 0000 0000
00000230: 0400 0000 98e0 013e 9ec1 603d c785 3d3b
00000240: a462 cb39 3508 de3d 0000 0000 88bf c93c
00000250: f814 803e 7d14 113c 237e 093e af12 223d
00000260: 3516 953a bf48 4039 e53b 5f3c 9d63 de39
00000270: 4d1f 5d3a 5228 ac38 6aa4 473c 9246 503e
00000280: 3f9d 263e e237 6b3c 0000 0000 1466 e93a
00000290: a900 923d 6276 5d3c 4198 443e 0400 0000
000002a0: 9aae 8a3d 8a49 ac17 03b9 633a 387d 7c39
000002b0: 08de 1c3d 8130 7606 99a1 8e3c 56a6 113e
000002c0: 2ef9 903d 1458 4b3e eca9 193a 0000 0000
000002d0: 72d6 5629 2744 533e 7628 0200 fdaa c03d
000002e0: 6c48 1f3e 0b5b 843d e5ed 033e e8c4 183d
000002f0: f0c1 053e 9ebf a33d 7e91 803b ea3d 363c
00000300: f638 a43d e862 103e b156 f53d 8c3d 743d
00000310: 212b 3e23 90c2 943c 4d2e aa3a 861a c93d
00000320: 9b58 543d c16a 6b3e 0000 0000 433c 953e
00000330: 34df c13d bf20 713d 11ee a63d aa54 3b24
00000340: 0000 0000 caab 6e3a cb34 be3b 9bcb 7739
00000350: 260c 5c3e bf43 063e 139c 0f3e 56c6 383e
00000360: 680f 303a 0e29 b23d 9fd7 f43d ad4d e93d
00000370: a26a e63b abe5 0d01 0000 0000 51d2 2d39
00000380: 8820 413e 13a1 1a3d 1cdd f039 0000 0000
00000390: 36e3 5b2f f9dd 193e f26b 7b3d a2ec ef37
000003a0: ad3c b73c 0773 e63d bc10 9f3c 0000 0000
000003b0: 5ba8 5f3e 0000 0000 8903 3d09 bbdf e53d
000003c0: b89b 1119 5910 be3c d86c 853d 8921 363c
000003d0: 2f04 0000 f796 823a 131b b53c b14b 5c3e
000003e0: d4a7 113e 1d07 500c 74d1 b43e 1e27 843d
000003f0: 470c 9139 4f4c f538 9735 c43a ee8b 123e

network.3.running_var f4 [256]
4.8473077e-05 1.3e-44 1.3e-44 0.005057437 0.006471064 0.010385392 0.00922212 0.0035690337
0.006189736 0.008838286 0.0069229887 0.007836942 1.1055357e-05 0.00012688586 0.0033312328 0.007558493
0.005917185 2.4985866e-05 0.02059913 0.00046285643 6.277187e-23 0.02944413 0.010833251 0.0018973462
1.3e-44 0.0009987012 7.3111795e-36 2.165586e-28 0.0084059965 2.9348952e-05 0.00072915026 2.2183812e-34
2.4387645e-24 0.015342703 3.4886703e-32 0.011919232 1.3e-44 0.008690054 1.34933445e-24 0.000964526
1.3e-44 0.0022740706 0.016745873 1.3418445e-30 9.660157e-05 1.4205073e-32 0.008650222 1.359679e-27
0.000121627134 0.0003463551 0.00468316 0.000458453 0.0036261466 0.00015110658 3.0472946e-05 0.0028271482
0.023846522 0.0044410997 0.01194207 1.3e-44 0.006167967 0.0095546385 0.00026620246 0.011158545
7.5232188e-06 0.0045368336 8.749595e-06 3.8e-43 0.0014763103 7.76e-43 1.3e-44 0.0011349382
1.3e-44 0.013871016 0.011022081 7.1671984e-06 0.025378361 0.013479908 0.0028925217 0.011355148
0.014313561 0.0070706247 1.7330413e-38 0.012512657 0.006706945 0.0002689793 0.0086040925 0.00019553708
0.003112241 2.7542803e-05 9.153204e-06 0.0008706165 0.011897287 4.8226037e-28 0.0070501645 5.3116898e-09
0.007083988 0.014101272 0.021791616 0.010420695 3.6819896e-05 0.004242695 0.035493933 0.007998533
0.00085038674 0.0009427864 0.0032358477 5.9056574e-06 0.0008350922 4.9757777e-23 0.005465287 1.3e-44
0.008892387 0.017440079 0.029232522 9.366742e-05 0.008453522 0.013480866 0.009796057 0.010130437
3.399156e-35 0.018803772 1.3e-44 0.0023899986 3.677301e-05 0.00017715954 0.029686907 0.01457899
4.556646e-06 0.007211941 0.028081408 1.3e-44 1.3e-44 1.636235e-05 0.0007813198 0.009232239
0.024804413 1.3e-44 0.005944654 1.3e-44 1.3e-44 0.010307398 0.0029176075 0.00015344424
2.909817e-05 0.00932449 1.3e-44 0.0024352467 0.02220527 0.0006957405 0.0102508385 0.005507003
8.4709725e-05 7.392885e-06 0.0013293296 3.464076e-05 3.884043e-05 1.9011729e-06 0.0010220986 0.025444098
0.014051871 0.0010241554 1.3e-44 0.00020519464 0.00907981 0.0011382288 0.016487341 1.3e-44
0.006644596 2.7774302e-27 4.0385818e-05 1.2575511e-05 0.0031447923 1.2162576e-36 0.002573051 0.015094253
0.007341346 0.020807847 7.6646065e-05 1.3e-44 6.133543e-16 0.014433094 1.0833e-41 0.010216222
0.01825024 0.0058723227 0.0062562884 0.0034041575 0.014809345 0.005787682 0.00031389875 0.00089789176
0.0075339354 0.011250579 0.009981051 0.006229189 5.8993823e-19 0.0019543604 7.354294e-05 0.013637946
0.005716158 0.021759393 1.3e-44 0.019484453 0.007328109 0.004445446 0.0067232754 2.0957512e-18
1.3e-44 6.4229826e-05 0.000521302 1.1088186e-05 0.018022578 0.010102925 0.008899437 0.018760553
6.3656655e-05 0.009001254 0.01356447 0.012696731 0.0006845031 3.79591e-40 1.3e-44 7.729477e-06
0.015129275 0.0030298962 2.0465504e-05 1.3e-44 1.4738454e-11 0.012686379 0.0057380577 1.2417414e-06
0.0016903256 0.01310165 0.0018039659 1.3e-44 0.011875372 1.3e-44 1.1920047e-34 0.008185577
3.997108e-25 0.002159981 0.006440635 0.0012657878 9.5e-44 7.133112e-05 0.0025498306 0.026453616
0.009843992 9.546757e-33 0.025297035 0.007050695 1.924325e-05 5.607479e-06 8.272355e-05 0.0111622205
00000000: 924f 4b38 0900 0000 0900 0000 dbb8 a53b
00000010: 380b d43b 7e27 2a3c 6018 173c 73e6 693b
00000020: 45d3 ca3b 75ce 103c 3dda e23b 8466 003c
00000030: 667a 3937 aa0c 0539 d050 5a3b 3cad f73b
00000040: f2e4 c13b bd98 d137 82bf a83c 8aab f239
00000050: e8c5 971a d134 f13c f37d 313c 60b0 f83a
00000060: 0900 0000 dae6 823a d97d 1b05 a442 8911
00000070: 4eb9 093c 6532 f637 7224 3f3a cd6f 9307
00000080: b5b0 3c18 f65f 7b3c 6224 350b e248 433c
00000090: 0900 0000 ba60 0e3c a5cc d017 3fd8 7c3a
000000a0: 0900 0000 9308 153b a42e 893c 0aba d90d
000000b0: 9396 ca38 9083 930a a9b9 0d3c 2273 d712
000000c0: 1212 ff38 ff96 b539 3275 993b 855c f039
000000d0: a5a4 6d3b 5d72 1e39 27a0 ff37 ad47 393b
000000e0: c859 c33c a586 913b aca8 433c 0900 0000
000000f0: a81c ca3b 0f8b 1c3c 1791 8b39 54d2 363c
00000100: f56f fc36 b8a9 943b 39cb 1237 0f01 0000
00000110: c180 c13a 2a02 0000 0900 0000 35c2 943a
00000120: 0900 0000 4243 633c f595 343c c47d f036
00000130: 48e6 cf3c d5da 5c3c 7690 3d3b f10a 3a3c
00000140: 6d83 6a3c b3b0 e73b 24b6 bc00 e301 4d3c
00000150: efc5 db3b ca05 8d39 2ef8 0c3c 1609 4d39
00000160: bdf6 4b3b b80b e737 b690 1937 163a 643a
00000170: d7ec 423c 9cd5 1812 1105 e73b 1e82 b631
00000180: cc20 e83b 0609 673c 5584 b23c 90bb 2a3c
00000190: 106f 1a38 4e06 8b3b 1662 113d 470c 033c
000001a0: 7dec 5e3a 5325 773a 8410 543b 3629 c636
000001b0: 17ea 5a3a 259d 701a 2616 b33b 0900 0000
000001c0: 60b1 113c 7fde 8e3c 0b79 ef3c 506f c438
000001d0: a480 0a3c dade 5c3c a47f 203c 22fa 253c
000001e0: eaba 3406 5e0a 9a3c 0900 0000 86a1 1c3b
000001f0: b83c 1a38 e7c3 3939 f531 f33c b7dc 6e3c
00000200: 4be5 9836 2552 ec3b fb0a e63c 0900 0000
00000210: 0900 0000 e141 8937 7cd1 4c3a d142 173c
00000220: a032 cb3c 0900 0000 5fcb c23b 0900 0000
00000230: 0900 0000 5ce0 283c 5535 3f3b e0e5 2039
00000240: d817 f437 bfc5 183c 0900 0000 a998 1f3b
00000250: d4e7 b53c 5b62 363a 22f3 273c 1774 b43b
00000260: 30a6 b138 6610 f836 e63c ae3a 3c4b 1138
00000270: 98e8 2238 ce2b ff35 f0f7 853a 2470 d03c
00000280: d239 663c f43c 863a 0900 0000 8429 5739
00000290: 7cc3 143c 9f30 953a 7610 873c 0900 0000
000002a0: e9ba d93b fa0c 5c13 f163 2938 69fb 5237
000002b0: dc18 4e3b 7def ce03 a2a0 283b e34d 773c
000002c0: ac8f f03b 3875 aa3c 0bbd a038 0900 0000
000002d0: 8fc9 3026 c978 6c3c 331e 0000 f161 273c
000002e0: 8781 953c 9d6c c03b 8d01 cd3b 4918 5f3b
000002f0: e5a2 723c 98a6 bd3b c792 a439 7f60 6b3a
00000300: 3bdf f63b 5954 383c 9087 233c 3a1e cc3b
00000310: 791e 2e21 ba14 003b 113b 9a38 b171 5f3c
00000320: 9c4e bb3b c140 b23c 0900 0000 dc9d 9f3c
00000330: a220 f03b 1bab 913b ec4e dc3b 9fa3 1a22
00000340: 0900 0000 20b3 8638 fca7 083a 6507 3a37
00000350: 16a4 933c bd86 253c f2ce 113c bbaf 993c
00000360: 687f 8538 ff79 133c 833d 5e3c f305 503c
00000370: 3a70 333a 2522 0400 0900 0000 daad 0137
00000380: c7e0 773c 3991 463b 56ad ab37 0900 0000
00000390: 0ca4 812d 88da 4f3c 5106 bc3b e9a9 a635
000003a0: ea8d dd3a 4ea8 563c 0d73 ec3a 0900 0000
000003b0: ec90 423c 0900 0000 d171 1e07 cc1c 063c
000003c0: b468 f716 788e 0d3b f60b d33b cae8 a53a
000003d0: 4400 0000 9a97 9538 0f1b 273b 41b5 d83c
000003e0: b248 213c 4447 460a ba3b cf3c 8409 e73b
000003f0: 916c a137 e127 bc36 de7b ad38 bfe1 363c

network.4.weight f4 [128, 256]
0.07294898 0.14333378 0.062100288 -0.11788505 0.070975095 0.02764301 0.0036716282 0.0010096019
0.056949776 0.008470581 0.16495901 0.0743998 -0.10638674 -0.010571372 0.054207973 -0.060322404
-0.014977891 -0.07244835 -0.09080275 -0.24663079 0.075254865 0.08810002 0.09879147 0.075624
0.02786843 0.037908934 -0.04519449 -0.08789338 0.12548235 0.0017010876 -0.0027094106 -0.08486782
-0.100501694 -0.06689221 -0.0088714985 -0.09911021 0.072537735 0.18057863 0.32554778 0.08452118
-0.0063493643 0.056890037 -0.039393418 0.037806798 0.060200505 0.0669336 0.036497176 0.008582536
-0.06654065 0.0078071333 -0.06325142 0.13120325 0.06870066 -0.27829167 -0.048837673 0.0018192176
-0.00019430634 -0.0063003977 -0.061104693 0.18764588 0.050646167 0.02131663 0.012442521 0.010524968
-0.13357703 0.006241031 0.021974085 -0.07459743 -0.010168581 -0.11602789 0.025215276 0.0009798758
0.18796268 -0.03582952 -0.015598176 0.0029768138 0.033277776 -0.018282432 -0.026276452 -0.1331326
-0.029821994 0.07591959 0.02339632 0.05758412 -0.097372815 -0.039238937 -0.047423396 -0.08201783
0.06197267 -0.054499205 -0.05955798 0.023284914 -0.053776816 0.10458819 -0.021197133 -0.07838583
-0.005906606 -0.037413005 -0.0033681814 0.0041988622 -0.036157258 0.018039756 0.07050183 0.16191342
-0.07577733 -0.0032695646 -0.076001994 -0.06291825 0.016879868 -0.109002054 -0.18647777 0.11642953
-0.068253934 0.03355098 0.019229876 -0.012061196 0.008698334 0.08502094 -0.14183052 0.084014915
-0.07549225 0.08811536 -0.10119921 -0.07475327 -0.06934506 -0.19833125 0.030664258 -0.10427073
0.021286327 -0.045920298 -0.0020850834 0.015757725 -0.14609304 0.05780339 -0.08966602 -0.06595642
-0.0064756786 -0.24805133 -0.07809607 0.084194556 0.029597597 0.09296491 0.09088304 0.055402298
0.037059955 -0.12808341 -0.2560542 -0.025402341 -0.0013574655 -0.043371905 -0.060562827 -0.19191414
-0.16032147 0.03988312 0.08153707 -0.070245884 -0.050958395 0.10309314 0.0820074 -0.1163929
-0.0532484 -0.07062838 -0.21515968 -0.091562964 -0.019568734 -0.05838512 -0.022214806 -0.08801549
0.01516397 -0.064975336 -0.03317657 -0.06773099 0.017248837 -0.10825441 0.17158958 -0.031223863
-0.023545267 0.026283676 0.16383816 -0.15407173 0.04295753 0.08129331 -0.070386596 0.04477347
0.01889903 0.043624777 -0.17348346 0.0589474 0.03506081 -0.09099667 0.043745168 0.028306864
0.007796923 0.008855848 0.1308788 -0.037946764 -0.045194075 -0.117554486 -0.09739922 -0.054237057
0.13428539 0.028562356 -0.10931243 -0.07369993 -0.02088785 -0.026304092 -0.1284487 -0.010576367
-0.097384654 -0.15635495 0.02398426 -0.04928058 0.080523826 -0.07086436 -0.072014704 0.0703873
-0.035041578 0.035303734 -0.1345842 -0.01797363 0.045072652 -0.09287122 -0.08116884 0.07971618
-0.13808882 -0.0065245125 -0.04823767 -0.031195097 0.036537558 -0.05074768 -0.07538387 -0.004920952
0.021342892 0.05883474 0.029166384 -0.17978325 -0.06436485 -0.025316311 -0.020370176 -0.035043802
-0.030983258 0.14804229 0.02069107 0.06711278 -0.09141447 -0.08187808 -0.010384138 0.00014095093
0.02732249 -0.110658035 0.014172703 0.11874312 -0.09123454 -0.073651865 0.027202485 0.11407906
00000000: 4666 953d 17c6 123e df5c 7e3d b86d f1bd
00000010: 645b 913d 9873 e23c b39f 703b 9e54 843a
00000020: 2b44 693d 31c8 0a3c 04eb 283e ec5e 983d
00000030: 4be1 d9bd 8c33 2dbc 2e09 5e3d a014 77bd
00000040: d465 75bc cd5f 94bd cbf6 b9bd c88c 7cbe
00000050: 391f 9a3d c96d b43d 2f53 ca3d c1e0 9a3d
00000060: 554c e43c 6646 1b3d dc1d 39bd 7201 b4bd
00000070: 727e 003e 07f7 de3a 5e90 31bb 2ecf adbd
00000080: d5d3 cdbd c8fe 88bd c359 11bc 4bfa cabd
00000090: aa8e 943d 9be9 383e 33ae a63e 7119 ad3d
000000a0: 540e d0bb 8705 693d fe5a 21bd 4ddb 1a3d
000000b0: ce94 763d 7c14 893d 107e 153d c49d 0c3c
000000c0: 7746 88bd fbd2 ff3b f689 81bd 255a 063e
000000d0: eeb2 8c3d 3f7c 8ebe 030a 48bd d072 ee3a
000000e0: b6be 4bb9 9173 cebb ea48 7abd 3e26 403e
000000f0: 5b72 4f3d 37a0 ae3c b7db 4b3c ea70 2c3c
00000100: 6bc8 08be 9081 cc3b ff02 b43c 8ac6 98bd
00000110: 1f9a 26bc 08a0 edbd 4490 ce3c 2d6f 803a
00000120: 4a79 403e fac1 12bd 7e8f 7fbc a616 433b
00000130: 474e 083d 0ac5 95bc b741 d7bc ea53 08be
00000140: 414d f4bc bb7b 9b3d a4a9 bf3c 54dd 6b3d
00000150: 666b c7bd 02b9 20bd 093f 42bd f7f8 a7bd
00000160: 0ed7 7d3d 8f3a 5fbd 12f3 73bd 01c0 be3c
00000170: 1445 5cbd 5532 d63d 9ca5 adbc c088 a0bd
00000180: 348c c1bb 613e 19bd b5bc 5cbb 9c96 893b
00000190: a219 14bd 1cc8 933c 4363 903d a2cc 253e
000001a0: 2531 9bbd 3146 56bb efa6 9bbd 49db 80bd
000001b0: a647 8a3c 783c dfbd 07f4 3ebe 9b72 ee3d
000001c0: b8c8 8bbd c16c 093d f987 9d3c 539c 45bc
000001d0: 7583 0e3c 751f ae3d 053c 11be 0310 ac3d
000001e0: ae9b 9abd d375 b43d 8841 cfbd 3e18 99bd
000001f0: c804 8ebd 5917 4bbe 9c33 fb3c e48b d5bd
00000200: aa60 ae3c ec16 3cbd e5a5 08bb 5816 813c
00000210: 6a99 15be 3fc3 6c3d d1a2 b7bd 2914 87bd
00000220: ee31 d4bb 2b01 7ebe d5f0 9fbd 326e ac3d
00000230: a976 f23c 6364 be3d e320 ba3d 85ed 623d
00000240: 2ecc 173d 4c28 03be 8919 83be 9218 d0bc
00000250: fcec b1ba bda6 31bd ba10 78bd 2485 44be
00000260: 502b 24be 7c5c 233d e8fc a63d 13dd 8fbd
00000270: c0b9 50bd 7f22 d33d 7ff3 a73d 675f eebd
00000280: ff1a 5abd 9da5 90bd d252 5cbe 5d85 bbbd
00000290: 9c4e a0bc 3c25 6fbd d3fb b5bc 7741 b4bd
000002a0: 4d72 783c ca11 85bd 28e4 07bd 8cb6 8abd
000002b0: 6f4d 8d3c 7db4 ddbd 2eb5 2f3e 30c9 ffbc
000002c0: 01e2 c0bc dd50 d73c 31c5 273e fbc4 1dbe
000002d0: 3cf4 2f3d 1b7d a63d d926 90bd 6364 373d
000002e0: 23d2 9a3c e5af 323d a6a5 31be d472 713d
000002f0: ed9b 0f3d 765c babd 222e 333d cce3 e73c
00000300: 557d ff3b 1e18 113c 1805 063e 116e 1bbd
00000310: 6c1d 39bd 68c0 f0bd 3e79 c7bd ad27 5ebd
00000320: 1c82 093e 9afb e93c 32df dfbd fdef 96bd
00000330: ff1c abbc ae7b d7bc 0e88 03be 8048 2dbc
00000340: 9b71 c7bd 831b 20be a47a c43c 6fda 49bd
00000350: ade9 a43d 5521 91bd 727c 93bd 3727 903d
00000360: c287 0fbd a69a 103d 71d0 09be 6f3d 93bc
00000370: 1a9e 383d 4433 bebd d93b a6bd 3d42 a33d
00000380: 2867 0dbe 94cb d5bb dd94 45bd dc8c ffbc
00000390: 68a8 153d cddc 4fbd dc62 9abd f03f a1bb
000003a0: 4ad7 ae3c b2fc 703d 57ee ee3c 1a19 38be
000003b0: b8d1 83bd 2764 cfbc 5bdf a6bc 178a 0fbd
000003c0: 9ad0 fdbc 6698 173e 5280 a93c 6d72 893d
000003d0: 8237 bbbd b2af a7bd 3b22 2abc 3acc 1339
000003e0: 6ad3 df3c aea0 e2bd a034 683c 982f f33d
000003f0: 2dd9 babd cad6 96bd bfd7 de3c 48a2 e93d

network.4.bias f4 [128]
-0.078417905 -0.035996098 -0.05756339 0.0070263976 0.0194885 -0.10455294 -0.021235825 0.0028151395
-0.030569803 0.026971223 -0.0066332305 -0.002829333 0.009984987 0.02550144 -0.08287271 -0.033833593
-0.037419092 -0.02144207 0.01794108 -0.009243059 0.057587903 0.022367468 -0.00025455034 0.026151445
0.01548536 0.04471908 0.028850691 0.07170644 0.044194095 0.016527437 -0.0012430429 -0.07490907
0.009856249 0.006138968 -0.044303376 0.01201064 -0.0060269916 0.036593977 -0.051869757 -0.025669182
0.008088278 0.034700204 -0.09478896 -0.004322082 -0.034177013 -0.003667209 -0.06632881 0.0046154056
-0.06482951 -0.043542817 -0.0037433894 0.009381343 -0.047881827 0.031182634 0.008296908 0.05974308
0.08028698 0.010574631 0.07085997 -0.00908964 -0.06301224 0.0025863638 0.0066023995 -0.046876743
-0.06807678 -0.01921926 -0.011117133 -0.00818575 0.0007055205 -0.06841863 0.027540792 0.0020972718
0.028498255 0.022313843 0.03935595 -0.018313492 0.02519952 -0.029509682 0.028399399 -0.018634733
-0.009452494 0.008729669 -0.01754354 0.0017256099 -0.035215065 -0.031798873 0.009681516 0.005350392
-0.02145641 0.018602468 0.008341829 0.026291473 -0.0047392123 -0.0083498955 -0.015651843 0.0073332046
0.044711716 -0.010711643 -0.060731083 0.049500022 -0.03357576 0.044643927 -0.031631593 0.04027073
-0.026691185 -0.040989846 0.034481615 -0.0078147575 0.0027025796 -0.018027522 0.03716227 0.0040511265
-0.014745944 -0.023463514 -0.09172538 -0.059828497 -0.13322134 0.009939598 0.036763772 0.015847204
0.0035757173 -0.0005695742 -0.022488711 0.030056123 -0.0136245405 -0.08885929 -0.0016654145 -0.037833124
00000000: 9199 a0bd a570 13bd 97c7 6bbd b23d e63b
00000010: 59a6 9f3c da1f d6bd c1f6 adbc 347e 383b
00000020: 866d fabc c1f2 dc3c 925b d9bb 556c 39bb
00000030: 1298 233c 65e8 d03c 2bb9 a9bd 1895 0abd
00000040: c344 19bd 48a7 afbc 2cf9 923c 3370 17bc
00000050: 4be1 6b3d fb3b b73c 2b75 85b9 8e3b d63c
00000060: 4fb6 7d3c 5b2b 373d 4958 ec3c d3da 923d
00000070: de04 353d 8c64 873c 99ed a2ba ed69 99bd
00000080: 1b7c 213c 6529 c93b 7577 35bd 47c8 443c
00000090: 127e c5bb 91e3 153d 6275 54bd 2d48 d2bc
000000a0: b284 043c cd21 0e3d b720 c2bd 40a0 8dbb
000000b0: 32fd 0bbd 8f55 70bb 66d7 87bd d43c 973b
000000c0: 56c5 84bd f459 32bd a753 75bb 34b4 193c
000000d0: bc1f 44bd b972 ff3c c1ef 073c 29b5 743d
000000e0: 806d a43d 3841 2d3c 081f 913d b7ec 14bc
000000f0: 900c 81bd fc7f 293b f158 d83b d401 40bd
00000100: d76b 8bbd b671 9dbc a324 36bc 861d 06bc
00000110: aef2 383a 111f 8cbd 3a9d e13c 6272 093b
00000120: 2c75 e93c 85cb b63c b433 213d 2d06 96bc
00000130: 396f ce3c 4abe f1bc dba5 e83c dea7 98bc
00000140: a2de 1abc e306 0f3c 78b7 8fbc dc2d e23a
00000150: ac3d 10bd 893f 02bd 399f 1e3c 5752 af3b
00000160: 5ac5 afbc 3464 983c 2bac 083c 3761 d73c
00000170: 654b 9bbb 00ce 08bc 4b38 80bc 614b f03b
00000180: a223 373d e37f 2fbc 28c1 78bd 89c0 4a3d
00000190: bc86 09bd 8ddc 363d 2190 01bd ecf2 243d
000001a0: 79a7 dabc f8e4 27bd 983c 0d3d 7809 00bc
000001b0: c31d 313b 74ae 93bc 7737 183d 50bf 843b
000001c0: f998 71bc 8e36 c0bc 84da bbbd ba0e 75bd
000001d0: 2d6b 08be b2d9 223c 9c95 163d ffd1 813c
000001e0: 9556 6a3b 7a4f 15ba 3f3a b8bc 4238 f63c
000001f0: 7739 5fbc dcfb b5bd 0a4a daba e8f6 1abd

network.7.weight f4 [128]
1.0311371 0.9645374 0.9251947 0.9313393 1.0109156 1.0173135 1.077718 1.0180706
1.0320637 0.9872676 1.009442 1.009516 0.9049969 1.0219654 1.0599883 0.94767994
1.0277166 0.9848944 1.0524471 1.0182472 1.0224901 1.0190604 1.1589619 1.0021964
0.95507747 0.98011744 1.0104171 1.0313039 0.9924235 0.976479 0.93270534 1.0607649
1.0107297 0.959126 0.96783537 0.95917964 0.95630515 0.99578846 0.9929643 1.0693719
0.89023703 0.97777 1.1312218 0.97354347 0.9441834 1.0014486 0.9972221 1.0986843
0.88314605 0.9984024 0.9480195 1.0491514 0.98008543 0.9987318 0.9496346 1.0099527
1.0080825 1.0234575 0.9080129 0.961054 1.0099065 1.0424525 0.9497209 0.99839216
1.0770113 1.0591023 0.90444726 0.99458337 1.057634 1.0547757 1.0057571 1.0125036
1.1243699 1.0120144 1.0568392 0.99127406 0.9529749 1.0049778 0.9265817 1.0044249
1.0352601 0.9676194 0.9719896 0.9622146 1.0253243 0.98512447 0.9975003 1.0258704
0.96842897 1.0698098 1.0762225 1.0149894 1.0843604 1.020573 1.0331638 0.9695772
1.0155101 1.0241 0.91963893 0.9389757 0.90314597 0.9442219 1.0348307 0.9551696
0.90629274 0.9192781 0.87115645 0.9748059 0.957258 0.97955763 0.9664377 0.9933733
1.015835 0.974372 0.9967911 1.0240802 1.0614392 0.9909159 0.9507839 0.97526646
1.0556439 0.95410603 0.9632173 0.9830599 0.9530196 1.1359427 0.99478686 0.9698274
00000000: 4dfc 833f eceb 763f 8fd9 6c3f 416c 6e3f
00000010: af65 813f 5437 823f aaf2 893f 2350 823f
00000020: aa1a 843f 92bd 7c3f 6535 813f d237 813f
00000030: e0ad 673f c3cf 823f b2ad 873f 279b 723f
00000040: 388c 833f 0a22 7c3f 96b6 863f ed55 823f
00000050: f5e0 823f 9270 823f dd58 943f f947 803f
00000060: f57f 743f fae8 7a3f 5955 813f c401 843f
00000070: 770f 7e3f 87fa 793f c7c5 6e3f 25c7 873f
00000080: 975f 813f 4889 753f 0fc4 773f cc8c 753f
00000090: 6ad0 743f feeb 7e3f e932 7e3f 2ee1 883f
000000a0: 93e6 633f 224f 7a3f e0cb 903f 253a 793f
000000b0: 01b6 713f 782f 803f f349 7f3f b0a1 8c3f
000000c0: dc15 623f 4d97 7f3f 68b1 723f 984a 863f
000000d0: e1e6 7a3f e3ac 7f3f 411b 733f 2146 813f
000000e0: d908 813f a800 833f 8973 683f a307 763f
000000f0: 9e44 813f 156f 853f e920 733f a196 7f3f
00000100: 82db 893f aa90 873f db89 673f 049d 7e3f
00000110: 8d60 873f e402 873f a6bc 803f b899 813f
00000120: 5aeb 8f3f b089 813f 8246 873f 23c4 7d3f
00000130: 2af6 733f 1da3 803f 7534 6d3f ff90 803f
00000140: 6783 843f e8b5 773f 4fd4 783f b253 763f
00000150: d43d 833f 1e31 7c3f 2e5c 7f3f b94f 833f
00000160: f6ea 773f 87ef 883f a9c1 893f 2ceb 813f
00000170: 52cc 8a3f 23a2 823f b63e 843f 3636 783f
00000180: 3cfc 813f b515 833f 756d 6b3f b660 703f
00000190: 9334 673f 87b8 713f 5575 843f ff85 743f
000001a0: cd02 683f cf55 6b3f 1c04 5f3f e18c 793f
000001b0: dc0e 753f 4ac4 7a3f 7668 773f b64d 7e3f
000001c0: e206 823f 7270 793f b42d 7f3f 0f15 833f
000001d0: 3ddd 873f aaac 7d3f 9366 733f 10ab 793f
000001e0: 571f 873f 4b40 743f 6995 763f d0a9 7b3f
000001f0: 18f9 733f 9266 913f 5aaa 7e3f 9c46 783f
